assets/BodyWeightmodel.tflite (tflite, 3232 bytes, 5 tensors)

model_3/dense_34/Selu f4 [16, 1]
0.35882092 0.22315015 0.49300924 0.14753932 -0.2236594 -0.1621432 0.28050435 0.29523915
0.53945327 -0.5893518 0.04780764 0.53446275 0.17815167 0.28339428 0.3231532 -0.25171512
00000000: 60b7 b73e 7981 643e b56b fc3e 8c14 173e
00000010: f806 65be de08 26be 449e 8f3e 9629 973e
00000020: 9c19 0a3f c2df 16bf f2d1 433d 8dd2 083f
00000030: 646d 363e 0e19 913e 5674 a53e cee0 80be

model_3/dense_34/Selu1 f4 [16]
-0.010534848 -0.010534828 -0.010534754 0.010508433 -0.010547628 0.01049388 -0.010535823 0.010510005
0.01051797 -0.0105430465 -0.010547361 0.010503973 0.010506146 0.010518936 0.01051476 0.010132294
00000000: 5b9a 2cbc 459a 2cbc f699 2cbc 902b 2c3c
00000010: f5cf 2cbc 86ee 2b3c 729e 2cbc 2832 2c3c
00000020: 9053 2c3c bebc 2cbc d7ce 2cbc db18 2c3c
00000030: f821 2c3c 9e57 2c3c 1a46 2c3c ec01 263c

model_3/dense_34/BiasAdd/ReadVariableOp f4 [16]
-0.010026495 -0.010026475 -0.010026405 0.010001354 -0.010038657 0.009987503 -0.010027423 0.010002851
0.010010431 -0.010034298 -0.010038404 0.009997109 0.009999177 0.010011351 0.010007376 0.009643366
00000000: 2b46 24bc 1646 24bc ca45 24bc b8dc 233c
00000010: 2e79 24bc a0a2 233c 0f4a 24bc ffe2 233c
00000020: ca02 243c e566 24bc 1e78 24bc eaca 233c
00000030: 97d3 233c a606 243c faf5 233c 35ff 1d3c

model_3/dense_34/MatMul f4 [16, 1]
0.3415062 0.21238215 0.46921933 0.14041989 -0.21286683 -0.15431906 0.26696876 0.28099254
0.51342225 -0.5609129 0.04550071 0.50867254 0.16955505 0.26971924 0.3075596 -0.23956876
00000000: e7d9 ae3e b57a 593e 843d f03e 3bca 0f3e
00000010: c3f9 59be d105 1ebe 21b0 883e 41de 8f3e
00000020: a46f 033f fd97 0fbf f45e 3a3d 5d38 023f
00000030: d79f 2d3e a418 8a3e 7478 9d3e 8351 75be

model_3/dense_35/MatMul f4 [1, 16]
-0.5515383 -0.11754197 -0.56565607 0.35977426 -0.22016169 0.5354977 -0.53606725 0.3207759
0.17626928 -0.5473898 -0.25911567 0.59797204 0.5219534 0.17760448 0.22194591 0.0061741946
00000000: 9d31 0dbf d8b9 f0bd d6ce 10bf 5534 b83e
00000010: 1172 61be 6116 093f b43b 09bf bd3c a43e
00000020: ef7f 343e bd21 0cbf cfaa 84be b214 193f
00000030: bd9e 053f f3dd 353e ca45 633e e650 ca3b
