assets/Mortalitymodel.tflite (tflite, 3168 bytes, 5 tensors)

model/dense_2/Selu f4 [16, 1]
000000 21 eb ea 3e 7d 4f 07 bf 4a b5 cf 3e 60 09 9d 3e
       0.45882514 -0.52855664 0.40568 0.30671215
000010 0a 9d f5 3e 90 66 f2 be b9 ab 8c bd 7b 5c 1c bf
       0.47971374 -0.47343874 -0.06868691 -0.61078614
000020 a2 1d ab be a2 0b 42 bd 9f 1b 97 be 41 b1 c9 bb
       -0.33421046 -0.047374375 -0.2951326 -0.0061551635
000030 40 8f 13 bf 35 5f 01 bf 56 59 46 3e 73 fa 63 3e
       -0.5764046 -0.505359 0.19370016 0.22263508

model/dense_2/Selu1 f4 [16]
000000 29 92 2c bc 64 f5 2b 3c 28 88 2c bc e9 95 2c bc
       -0.010532894 0.010495517 -0.010530509 -0.010533788
000010 d9 27 2c 3c f0 bd 2c bc a9 d1 2c bc a5 d5 2c bc
       0.010507547 -0.0105433315 -0.010548034 -0.010548984
000020 e9 ef 2b 3c c6 14 29 3c 88 d9 2b 3c a7 de 2d bc
       0.010494211 0.010319894 0.010488875 -0.0106121665
000030 36 8f 2b 3c fa d0 2c bc 77 96 2c bc 38 1a 2d 3c
       0.010471156 -0.010547871 -0.0105339205 0.010565333

model/dense_2/BiasAdd/ReadVariableOp f4 [16]
000000 5e 3e 24 bc 29 a9 23 3c d8 34 24 bc ef 41 24 bc
       -0.010024635 0.009989061 -0.010022365 -0.010025485
000010 2f d9 23 3c 08 68 24 bc cd 7a 24 bc 98 7e 24 bc
       0.010000511 -0.010034569 -0.010039044 -0.010039948
000020 f2 a3 23 3c 17 ec 20 3c a6 8e 23 3c d0 7a 25 bc
       0.009987818 0.009821913 0.0099827405 -0.010100082
000030 ea 47 23 3c 27 7a 24 bc 77 42 24 bc dc bf 24 3c
       0.009965876 -0.010038889 -0.010025612 0.010055508

model/dense_2/MatMul f4 [16, 1]
000000 26 95 df 3e fa c7 00 bf 71 af c5 3e 7b 75 95 3e
       0.4366848 -0.5030514 0.38610414 0.29191193
000010 f1 c2 e9 3e 27 b4 e6 be ff e1 85 bd ed d0 14 bf
       0.4565654 -0.4505932 -0.06537246 -0.58131295
000020 d1 db a2 be 90 ae 38 bd f7 d0 8f be b8 f5 bf bb
       -0.31808332 -0.04508835 -0.28089115 -0.0058581494
000030 6d 70 0c bf 1e 42 f6 be 1a c7 3c 3e 33 fa 58 3e
       -0.5485905 -0.48097318 0.18435326 0.21189193

model/dense_3/MatMul f4 [1, 16]
000000 b2 13 bf be 33 5f 02 3f c6 e2 8f be e9 a2 d8 be
       -0.37319714 0.5092651 -0.28102702 -0.4231179
000010 6c cf d0 3e cc 9f ea be c9 96 40 be 02 2c 86 be
       0.4078325 -0.4582504 -0.1880752 -0.2620545
000020 a4 20 e1 3e e6 6e 84 3c 9e 85 85 3e 49 8c 6a be
       0.43970215 0.016166162 0.26078504 -0.22905077
000030 f3 55 dd 3d 5f 18 8a be 85 5b dc be a9 b3 5d 3d
       0.10807409 -0.2697172 -0.43038574 0.054126415
